models/ssvae.model (torch, 161194 bytes, 19 tensors)

encoder_y.sequential_mlp.1.weight f4 [100, 8]
0	0xbe0ab891	-0.13546969
1	0x3ec0eefd	0.37682334
2	0x3ae3e205	0.0017386085
3	0x3e19286f	0.1495683
4	0xbe86ffed	-0.2636713
5	0x3f4d9971	0.8031226
6	0x3c567fa4	0.013091955
7	0xbdfdb5e7	-0.12388211
8	0xbdf43f8b	-0.11926182
9	0x3e4d0ada	0.20023671
10	0x3c26092d	0.010134024
11	0x3eba3fd1	0.36376813
12	0x3f3030fa	0.6882473
13	0x3fab5f38	1.3388433
14	0x3f44428c	0.7666404
15	0x3ee3c876	0.44488877
16	0xbe49547d	-0.19661136
17	0x3e84fc8e	0.25973934
18	0x3c904799	0.017612265
19	0xbe92ceb7	-0.28673336
20	0xbeb7fe40	-0.35936165
21	0xbf041f90	-0.5161066
22	0xbf3095a4	-0.68978333
23	0x3dd47838	0.103744924
24	0xbd7f5660	-0.062338233
25	0xbed96795	-0.4246184
26	0x3c5f80dc	0.013641562
27	0x3f1ec960	0.62026024
28	0xbe4a358e	-0.19746992
29	0x3f860fcb	1.047357
30	0x3f2db2b2	0.6785079
31	0xbdbd5d3d	-0.092462994
32	0xbe112ea7	-0.14177953
33	0x3ec4f9da	0.38471872
34	0x3b744cf0	0.0037277304
35	0x3df68353	0.12036767
36	0xbec2e572	-0.38065678
37	0x3f7390a2	0.9514257
38	0xbe06987d	-0.13144107
39	0xbe15c275	-0.1462496
40	0xb9f63789	-0.00046962153
41	0x3ebb919c	0.3663453
42	0x3a9ccff0	0.0011963826
43	0xbd932f8b	-0.071868025
44	0xbe84cf4f	-0.25939414
45	0xbf9397b7	-1.1530675
46	0xbf30a825	-0.6900657
47	0x3e95d94d	0.2926735
48	0xbe0d2ab3	-0.1378582
49	0x3ec01771	0.37517884
50	0x3a88c91a	0.001043591
51	0x3e0bce85	0.13653
52	0xbeb1bc92	-0.3471418
53	0x3f6b114c	0.9182327
54	0xbe25722e	-0.16156837
55	0xbe01b686	-0.12667283
56	0xbd3e9650	-0.046530068
57	0x3e7bfa55	0.24607213
58	0x39c05726	0.00036686024
59	0x3e964adb	0.29353985
60	0x3c640d0b	0.013919125
61	0xbe622fc9	-0.22088541
62	0xbf2d112f	-0.67604345
63	0x3ce0bfce	0.02743521
64	0x3dcaa600	0.09894943
65	0x3d80196d	0.062548496
66	0xbc2bed67	-0.010493613
67	0x3f2fda7b	0.6869275
68	0x3f2ff133	0.68727416
69	0x3fe21fa2	1.7665904
70	0x3e387647	0.18013869
71	0x3f9d434f	1.2286166
72	0x3e8eccc2	0.27890593
73	0xbdd4bea6	-0.10387926
74	0xbc6f234a	-0.014595816
75	0xbe6889ad	-0.22708769
76	0x3dccda13	0.10002532
77	0xbfbc6c40	-1.4720535
78	0xbf3c6bba	-0.7360188
79	0xbe910791	-0.28326085
80	0x3d020d27	0.031750824
81	0x3e33e79f	0.17568825
82	0xbc463afe	-0.012099026
83	0x3e751600	0.23934174
84	0x3da42a37	0.08015864
85	0xbe6c7798	-0.23092496
86	0x3f0538b5	0.52039653
87	0xbdce2825	-0.10066251
88	0xbe3f7006	-0.18695077
89	0x3eb0390d	0.34418526
90	0x3c308b2d	0.01077537
91	0xbe922a81	-0.28548053
92	0x3de73d9d	0.11291049
93	0xbebd436b	-0.36965498
94	0xbe997918	-0.299752
95	0x3e760bbf	0.24027918
96	0x3d3156df	0.043295737
97	0x3e1b6f24	0.15179116
98	0xbc55e5aa	-0.013055244
99	0x3e52325d	0.20527025
100	0x3e17b886	0.14816484
101	0xbe68482c	-0.22683781
102	0x3f00c048	0.502934
103	0xbdcfef45	-0.10153059
104	0xbe8cb85e	-0.2748441
105	0xbc06f8e1	-0.008238048
106	0x3c31aa0c	0.010843765
107	0xbba40ffa	-0.0050067874
108	0x3f089063	0.53345317
109	0x3f9c25be	1.2199018
110	0x3eabdb94	0.33565962
111	0xbebaf12c	-0.36512125
112	0xbdcf0b47	-0.10109573
113	0x3eac02ef	0.33595988
114	0x3b006060	0.0019588694
115	0x3e327804	0.17428595
116	0xbe5ecffd	-0.21759029
117	0x3f36efcb	0.71459645
118	0xbe6aace6	-0.22917518
119	0xbe06eb08	-0.13175595
120	0x3cec1ca4	0.02882225
121	0x3ebba2c1	0.3664761
122	0xbca12595	-0.01967124
123	0x3dfea4bf	0.124337666
124	0x3f27c414	0.65533566
125	0x3f2352bf	0.63798136
126	0x3f46c9fd	0.7765196
127	0xbf24f971	-0.6444312
128	0x3d9773cb	0.07395133
129	0x3f3ccecb	0.7375304
130	0xbbebb378	-0.007193025
131	0xbe0a2953	-0.13492326
132	0xbf55defb	-0.83543366
133	0xbd611dd8	-0.0549601
134	0xbe7ee4ce	-0.2489197
135	0xbe598101	-0.21240617
136	0xbbbba76b	-0.005726745
137	0x3f2415f9	0.6409603
138	0xbc21b263	-0.009869191
139	0xbde649d8	-0.11244553
140	0xbd55248a	-0.0520368
141	0x3f238237	0.6387057
142	0x3f3d2e42	0.7389871
143	0xbddc4eca	-0.10757215
144	0xbe600841	-0.21878149
145	0x3eaab4b8	0.33341002
146	0xbbc0cc1c	-0.0058837067
147	0xbdc3457a	-0.09534736
148	0xbec1d749	-0.37859562
149	0xbcd47035	-0.02593241
150	0xbdef72d0	-0.116918206
151	0x3b52f983	0.0032192178
152	0xbe86c668	-0.26323247
153	0x3d4d59cd	0.05013447
154	0x3c8d47ac	0.01724609
155	0x3c530c25	0.012881313
156	0x3ea4a824	0.3215953
157	0x3ff1c735	1.8888918
158	0x3f228f9b	0.63500375
159	0xbee1b7bc	-0.4408549
160	0xbc682542	-0.014169039
161	0x3e8ec60b	0.2788547
162	0xbbf9ad80	-0.0076195598
163	0xbd021875	-0.031761605
164	0x3f11281c	0.5670183
165	0x3ec81287	0.39076635
166	0x3f24c651	0.64365107
167	0xbd074269	-0.033022318
168	0x3c1bdc28	0.009512939
169	0xbde8facf	-0.11375963
170	0x3955722d	0.00020355797
171	0xbeb33fc6	-0.35009593
172	0x3f1d8451	0.61530024
173	0x404aa4df	3.166313
174	0xbf06de30	-0.5268278
175	0x3fab0338	1.3360357
176	0x3c727060	0.0147973
177	0x3f7827ce	0.9693574
178	0xbc8358c5	-0.01603354
179	0x3f0fb399	0.5613342
180	0x3ec00d0c	0.37509954
181	0x3d4dc8bc	0.050240263
182	0xbd2f7073	-0.04283185
183	0x3e22ddaa	0.1590487
184	0xbe1c2874	-0.15249807
185	0x3ed5bb21	0.4174433
186	0x3b057d8f	0.0020369028
187	0x3e12815a	0.14307156
188	0xbea1eef5	-0.31627622
189	0x3f82d45e	1.0221059
190	0xbe09572b	-0.13412158
191	0xbe29d03e	-0.16583344
192	0xbe132111	-0.14368083
193	0x3eac2b57	0.33626816
194	0x3a8f2f85	0.0010924196
195	0x3dbb7870	0.09153831
196	0xbea119db	-0.3146504
197	0x3f3629f5	0.7115777
198	0xbd2554ad	-0.040363956
199	0xbe0ffedf	-0.1406207
200	0x3d31a8b6	0.043373786
201	0xbc99fdc4	-0.018797763
202	0xbc915f79	-0.01774572
203	0x3e93cdb8	0.28867888
204	0x3f785ce4	0.9701674
205	0xbc28c29a	-0.010300303
206	0x3f0aa923	0.5416433
207	0xbf157c78	-0.5839305
208	0xbdaae7fb	-0.08345028
209	0x3e949b77	0.2902486
210	0x3b33b8b9	0.0027423336
211	0x3edf065c	0.4355954
212	0x3e5d0a34	0.21585923
213	0x3ea49c34	0.32150424
214	0xbf192e63	-0.59836406
215	0xbdefde2c	-0.11712298
216	0xbdf2b0d8	-0.118501365
217	0x3eb212db	0.3478001
218	0x3b730e46	0.0037087365
219	0x3dc36b24	0.0954192
220	0xbeaaad43	-0.33335313
221	0x3f595d39	0.8490787
222	0xbe7a5cf4	-0.24449521
223	0xbe06deba	-0.13170901
224	0xbcfad753	-0.030620253
225	0x3e9e02e4	0.3086158
226	0x39c908bf	0.00038344224
227	0x3e97b4b3	0.2963005
228	0xbe2f2f7b	-0.17107956
229	0xbf28c671	-0.659278
230	0xbf89f080	-1.077652
231	0xbc99cd89	-0.018774765
232	0xbdcd5384	-0.10025695
233	0x3ed41966	0.41425627
234	0x3c1f9c3b	0.009741838
235	0x3e17d51f	0.14827393
236	0x3d980066	0.07421951
237	0xbfd18663	-1.6369137
238	0xbf930802	-1.1486819
239	0x3e22b9ad	0.15891142
240	0xbdf1d528	-0.118082345
241	0x3ec1011d	0.37696162
242	0x3bfdb2d4	0.0077422652
243	0xbe2dcc86	-0.16972551
244	0xbe3a4381	-0.18189813
245	0xbd65e56d	-0.056127
246	0xbe438162	-0.19092324
247	0x3e0d7e45	0.13817699
248	0x3a50bded	0.00079628715
249	0x3f7798a7	0.96717304
250	0xbc1ee5e3	-0.009698364
251	0xbe10eb76	-0.14152321
252	0x3d21073c	0.03931354
253	0x3f7768db	0.9664437
254	0x3ee2afb9	0.4427469
255	0xbdba993b	-0.09111258

encoder_y.sequential_mlp.1.bias f4 [100]
0	0x3ebc06f1	0.36724046
1	0xbe747611	-0.23873164
2	0x3e45a2d9	0.19300403
3	0xbf52ae2b	-0.8229701
4	0x3eb9661e	0.36210722
5	0x3f0163f1	0.50543123
6	0x3eb83a77	0.35982105
7	0x3eb21e11	0.34788564
8	0xbe714b5f	-0.23563908
9	0x3ec03311	0.3753896
10	0x3e278b9d	0.16361852
11	0x3e8f3aea	0.27974635
12	0x3e14a0f0	0.14514518
13	0xbe7a681e	-0.2445378
14	0x3ea770e8	0.32703328
15	0x3e08ee02	0.13372043
16	0x3f7c6caa	0.9860331
17	0x3eaf356b	0.34220442
18	0x3e86839f	0.26272294
19	0xbedac8b1	-0.4273124
20	0x3e140940	0.14456654
21	0xbec02bcb	-0.3753341
22	0x3f6ec24e	0.93265235
23	0x3ec66b74	0.38753855
24	0x3ea0fca0	0.31442738
25	0xbe1c29bb	-0.15250294
26	0x3ee01899	0.43768767
27	0x3ea701cc	0.32618558
28	0x3efcbffd	0.49365225
29	0x3ef5fcfc	0.48044574
30	0x3ebf83db	0.37405285
31	0x3ec69ca3	0.3879138
32	0x3e6fdfd3	0.23425226
33	0x3ec0ea9e	0.37679
34	0x3ed72190	0.42017794
35	0x3ec6dc2d	0.38839856
36	0xbcd84992	-0.026402269
37	0x3e83f39d	0.257718
38	0x3de58663	0.11207273
39	0xbe452e74	-0.19256002
40	0xbe2bb51b	-0.16768305
41	0x3e9b0e09	0.30284145
42	0x3da10eb5	0.07864133
43	0xbdf25715	-0.11833016
44	0x3d3de214	0.046358183
45	0x3e7f9bca	0.24961773
46	0x3eb0502c	0.34436166
47	0x3ea0e7c0	0.3142681
48	0x3e8e08c6	0.2774107
49	0x3e936d46	0.28794307
50	0x3e45056e	0.19240353
51	0x3ec67913	0.38764247
52	0x3ea9a4a6	0.3313343
53	0x3ebf2179	0.37330225
54	0x3ed6c7bc	0.4194926
55	0x3ea04733	0.3130432
56	0x3eb0169d	0.34392253
57	0xbec33a8e	-0.3813061
58	0xbe7b0c17	-0.2451633
59	0x3caf86ec	0.02142664
60	0x3f0e22d2	0.5552188
61	0x3ec78a04	0.38972485
62	0x3eb06249	0.34449986
63	0x3dd550c8	0.104157984
64	0x3ee05f27	0.43822595
65	0x3e449337	0.19196783
66	0x3ebff339	0.37490252
67	0x3eaf886e	0.34283775
68	0x3f524618	0.82138205
69	0x3ea106f4	0.31450617
70	0x3e9edf7f	0.3102989
71	0x3e511ef8	0.2042197
72	0xbd2c8ea2	-0.042128213
73	0x3c6933df	0.014233558
74	0x3e6bb0ec	0.23016709
75	0xbea6c8b9	-0.32575014
76	0x3e2e31bf	0.17011164
77	0x3ebbdb73	0.36690864
78	0x3eae75cf	0.34074256
79	0x3eff7c24	0.498994
80	0x3e560338	0.20899665
81	0x3ec24ff7	0.37951633
82	0xbe9e808e	-0.30957454
83	0x3ebf83a0	0.3740511
84	0x3eb7ec49	0.3592246
85	0xbe339fe0	-0.17541456
86	0x3ea41972	0.32050663
87	0x3ebd3e5b	0.36961636
88	0xbe72dd6c	-0.23717278
89	0x3eb95d77	0.3620412
90	0x3cd06e6a	0.025443275
91	0x3eb67e0b	0.35643038
92	0x3e005380	0.12531853
93	0x3e616370	0.22010589
94	0x3e1e1ce4	0.15440708
95	0x3f1a547d	0.6028517
96	0x3e038e8f	0.1284735
97	0x3ec70f94	0.38879073
98	0xbe96f181	-0.29481128
99	0x3ec0f205	0.37684646

encoder_y.sequential_mlp.3.weight f4 [100, 100]
0	0xbeb41c48	-0.35177827
1	0x3c8a0612	0.016848598
2	0xbcfff374	-0.031244017
3	0xbd99182f	-0.07475316
4	0xbe6fda8a	-0.2342321
5	0xbeb3626e	-0.35036033
6	0xbe1a31a2	-0.15057996
7	0xbef81848	-0.48456025
8	0x3e4357ae	0.19076416
9	0xbdc486d5	-0.0959603
10	0xbe7ca8ee	-0.24673817
11	0xbdd1ba62	-0.10240628
12	0xbe80b58f	-0.25138518
13	0xbcbc644e	-0.022997048
14	0xbd7e4f1a	-0.062087156
15	0xbeaff96d	-0.34369984
16	0x3f055388	0.52080584
17	0xbee571d3	-0.44813403
18	0xbdefa18b	-0.11700734
19	0x3db66e16	0.08907716
20	0xbde38af8	-0.111104906
21	0xbf289480	-0.65851593
22	0xbf71c667	-0.9444336
23	0xbea32357	-0.318629
24	0xbe737a15	-0.2377704
25	0xbe891221	-0.26771644
26	0xbf0b08d5	-0.5431035
27	0xbd8463d2	-0.06464352
28	0xbf01b8d7	-0.5067267
29	0xbea24a62	-0.31697375
30	0x3d88d800	0.06681824
31	0xbc95db40	-0.018293023
32	0x3c6446e0	0.013932914
33	0xbe6aac4a	-0.22917286
34	0xbe6391b4	-0.2222355
35	0x3e603078	0.2189349
36	0x3e1d06ea	0.15334669
37	0xbee95052	-0.45569092
38	0x3e034450	0.12819028
39	0x3e474a83	0.19462018
40	0xbe963c58	-0.29342914
41	0xbe458734	-0.19289857
42	0xbdc1446c	-0.094368786
43	0xbc679522	-0.014134677
44	0xbe19d1d1	-0.15021445
45	0x3d872239	0.06598324
46	0x3dfcc374	0.12341967
47	0xbe2abc45	-0.16673382
48	0xbdf2b323	-0.11850574
49	0x3e39ce6e	0.18145153
50	0x3d9879ff	0.07445144
51	0xbf1d50c0	-0.6145134
52	0xbde4c82e	-0.11170994
53	0xbe1bd4e0	-0.15217924
54	0xbebd0ef1	-0.36925462
55	0xbe55938e	-0.20857069
56	0xbe41ad65	-0.18913801
57	0xbb303378	-0.0026886147
58	0xbea02eeb	-0.31285796
59	0x3df34113	0.11877646
60	0x3e26fd42	0.16307548
61	0x3d6775a2	0.056508668
62	0xbdeef816	-0.116684124
63	0x3cb4feff	0.022094248
64	0xbebe62c2	-0.3718472
65	0xbda9b4a6	-0.08286409
66	0xbe447d0f	-0.19188331
67	0xbd866a0a	-0.06563194
68	0xbeb10c12	-0.3457952
69	0xbe482889	-0.19546713
70	0x3b301654	0.0026868777
71	0xbdcd3937	-0.100206785
72	0xbd6e67a1	-0.058204297
73	0xbe252fc9	-0.1613151
74	0xbcb8bd3b	-0.02255117
75	0xbd858cf4	-0.06521025
76	0x3dae10c5	0.08499292
77	0xbe6dd16d	-0.23224421
78	0xbdb8669e	-0.09003948
79	0x3e8bc880	0.27301407
80	0xbdaec4ed	-0.08533654
81	0xbeb46c12	-0.352387
82	0xbe60b16b	-0.2194268
83	0xbea2c446	-0.3179037
84	0xbef80b07	-0.48445913
85	0x3dabf1c9	0.08395726
86	0xbda086ab	-0.07838186
87	0x3b45bdc8	0.0030172933
88	0xbed149bb	-0.40876564
89	0xbe1eb015	-0.15496857
90	0xbe1d22ed	-0.15345354
91	0xbe4689b5	-0.19388469
92	0xbc11de4b	-0.008903096
93	0xbea6fb3f	-0.3261356
94	0x3d8a19ee	0.06743227
95	0xbf417727	-0.7557244
96	0xbd6a5a1d	-0.057214845
97	0xbeadcfb0	-0.33947515
98	0xbd285e35	-0.041105468
99	0xbcb0e6f0	-0.021594495
100	0xbd0cc2b5	-0.034365375
101	0xbe2181a0	-0.15772104
102	0x3e01af24	0.12664467
103	0xbdf13d4f	-0.11779272
104	0xbdacbade	-0.084340796
105	0x3dd6ac5a	0.10482092
106	0xbdb40c86	-0.08791451
107	0x3e570972	0.20999697
108	0xbe83a3cc	-0.25710905
109	0x3d85d131	0.06534041
110	0xbeb610cb	-0.35559687
111	0x3e5aba46	0.2136012
112	0xbf200ec7	-0.6252255
113	0xbd7657bf	-0.060142275
114	0xbd513a48	-0.051080972
115	0xbc900acb	-0.017583271
116	0x3cb487db	0.022037437
117	0xbf65db30	-0.8978758
118	0x3dcac30e	0.09900485
119	0xbe61a268	-0.2203461
120	0xbdadff20	-0.08495927
121	0xbdf57676	-0.11985485
122	0x3e75b604	0.23995215
123	0xbd810af5	-0.06300918
124	0xbdc678c8	-0.09691006
125	0x3e2eac00	0.170578
126	0x3d5f2ab6	0.05448409
127	0xbc5b5782	-0.013387563
128	0x3e6c6ddd	0.23088785
129	0x3e495d4a	0.19664493
130	0x3e210631	0.15725018
131	0xbf94cdc2	-1.1625292
132	0x3dd8a746	0.1057878
133	0xbd94a0ed	-0.07257257
134	0xbdee7d18	-0.116449535
135	0x3dd46f8d	0.10372839
136	0xbc803a16	-0.015652698
137	0x3e1b4b3f	0.15165423
138	0xbd3a2bca	-0.045451917
139	0xbb95bee3	-0.0045698746
140	0x3e13159d	0.14363714
141	0xbf78b044	-0.9714396
142	0xbef9e328	-0.4880612
143	0xbd7a2cbd	-0.061077822
144	0xbe555e55	-0.20836766
145	0xbe2f6e0d	-0.17131825
146	0x3e2bd2e8	0.16779673
147	0x3cee1609	0.029063242
148	0x3dedda3d	0.11613891
149	0xbdf22c9e	-0.11824916
150	0xbef7f01d	-0.4842538
151	0xbe3c7b6e	-0.1840646
152	0x3e6ac73e	0.22927567
153	0x3ce9ae7d	0.028525585
154	0xbd2cfcbc	-0.042233214
155	0xbf2b23e5	-0.66851646
156	0xbddd51ed	-0.10806642
157	0xbcc6e4a4	-0.024278946
158	0xbe18e476	-0.14930901
159	0xbce5b5ae	-0.028040733
160	0x3dc32d44	0.09530118
161	0x3da8872e	0.082289085
162	0xbf516eb3	-0.8180954
163	0xbe43d8fe	-0.19125745
164	0x3d8109da	0.06300707
165	0x3d140daa	0.036145844
166	0xbdb635c8	-0.08896977
167	0x3de0f092	0.10983385
168	0xbe0157b9	-0.1263112
169	0xbf859ff7	-1.0439442
170	0xbb9ac677	-0.004723366
171	0x3dbc1d69	0.09185297
172	0xbe431f30	-0.19054866
173	0xbe80c724	-0.25151932
174	0x3d1296c4	0.035788313
175	0xbe62526f	-0.22101758
176	0xbd3062c2	-0.043062933
177	0xbd3baad1	-0.0458172
178	0xbdba37a3	-0.09092643
179	0x3db91ffe	0.09039305
180	0x3dd3080c	0.10304269
181	0xbb36dd96	-0.0027903072
182	0x3d1070f9	0.03526399
183	0x3d38cb83	0.04511596
184	0x3e51e429	0.20497192
185	0x3e0d247b	0.13783447
186	0xbd80e300	-0.06293297
187	0x3db39864	0.087693006
188	0x3d77dada	0.060511447
189	0x3d6f22d8	0.05838284
190	0xbe53d97e	-0.20688435
191	0x3bb41b98	0.0054964535
192	0xbeeeca68	-0.466388
193	0x3d49b63b	0.049246054
194	0xbd44d907	-0.048058536
195	0x3e7d0f0e	0.24712774
196	0xbdb3699a	-0.08760376
197	0xbdcb1104	-0.09915355
198	0xbd6d2c78	-0.057903737
199	0x3e238692	0.15969303
200	0x3e244482	0.16041759
201	0xbdab63a2	-0.08368613
202	0xbea9cf57	-0.33166
203	0x3d07d8d1	0.033165757
204	0xbab131a5	-0.0013518824
205	0x3d0d6787	0.03452256
206	0xbc91c06e	-0.017791953
207	0x3cda27ac	0.026630245
208	0xbe989c53	-0.29806766
209	0x3e04a1d5	0.12952359
210	0xbe8d9b87	-0.2765772
211	0x3d095246	0.033525728
212	0xbf1ca9f1	-0.6119681
213	0x3f289814	0.6585705
214	0xbda01dfd	-0.0781822
215	0xbf11885f	-0.5684871
216	0x3e2a0045	0.16601665
217	0xbf302632	-0.6880828
218	0x3d846f9e	0.06466602
219	0x3a90a087	0.0011034169
220	0xbea89ff6	-0.3293454
221	0xbd820c97	-0.063500576
222	0x3f2ace8b	0.6672141
223	0xbc0c204e	-0.008552624
224	0x3e53108b	0.2061178
225	0xbe914d80	-0.2837944
226	0xbb4c5a54	-0.003118177
227	0xbe4180e9	-0.18896832
228	0xbd2e16bf	-0.04250216
229	0xbcf6764b	-0.030085703
230	0xbc4cfc6c	-0.012511354
231	0xbf4b62d5	-0.7944768
232	0xbe3f4e64	-0.18682247
233	0x3bc05c86	0.0058704047
234	0x3d88e9b1	0.06685198
235	0x3da8c092	0.08239855
236	0xbebc36de	-0.3676061
237	0xbc81194b	-0.015759131
238	0x3e5c7e04	0.21532446
239	0xbefc0b68	-0.49227452
240	0xbea33863	-0.31878957
241	0xbecddff9	-0.4020994
242	0xbef53595	-0.47892442
243	0x3e64b43d	0.2233438
244	0xbdb9e972	-0.09077729
245	0xbddca1d7	-0.10773056
246	0x3d02ef80	0.031966686
247	0x3e4dd662	0.20101312
248	0xbcafadb9	-0.021445142
249	0xbe489972	-0.19589785
250	0x3dfde3b1	0.12396944
251	0xbe12561b	-0.14290659
252	0xbd53e9c8	-0.051736623
253	0x3e2f7465	0.17134245
254	0x3e39dbab	0.18150203
255	0xbef8f218	-0.48622203

encoder_y.sequential_mlp.3.bias f4 [100]
0	0x3db2570f	0.08708011
1	0x3ea99647	0.33122465
2	0x3f038492	0.5137416
3	0x3f067a96	0.525308
4	0x3f03c976	0.5147928
5	0x3f0570cd	0.52125245
6	0x3f0c56ac	0.5481975
7	0xbe165e97	-0.1468452
8	0x3d7b2712	0.061316557
9	0x3e54e549	0.2079059
10	0x3e743bd0	0.23850942
11	0xbb4fac8b	-0.0031688537
12	0x3f47d703	0.78062457
13	0x3dd239db	0.10264941
14	0xbdb05790	-0.08610451
15	0xbd621a65	-0.055200953
16	0x3f0034be	0.5008048
17	0x3e800154	0.25001013
18	0x3e83f5f5	0.25773588
19	0x3ebd06c2	0.36919218
20	0x3ef559d4	0.47920096
21	0x3e2d627b	0.16932099
22	0x3d937369	0.07199747
23	0x3eaa764e	0.33293384
24	0xbde52b64	-0.11189917
25	0x3f0a2c6d	0.5397404
26	0x3f0a586e	0.54041183
27	0x3f03b977	0.5145487
28	0x3e3af54d	0.18257637
29	0x3d8e2fbd	0.06942699
30	0x3d8c81e6	0.06860714
31	0x3d758a63	0.05994643
32	0x3daba2a1	0.083806284
33	0x3e520467	0.20509492
34	0x3f07710d	0.52906877
35	0x3d87cd34	0.06630936
36	0x3e1aeff7	0.15130602
37	0x3eca2b6b	0.3948625
38	0x3e820ec9	0.25401905
39	0x3f0a8039	0.541019
40	0x3e4145a3	0.1887422
41	0x3e49b4bd	0.19697852
42	0x3ed28591	0.41117528
43	0x3dc5c0dd	0.096559264
44	0x3eab2046	0.3342306
45	0x3f0b8c89	0.54511315
46	0x3e183931	0.14865567
47	0x3e16bf05	0.14721306
48	0x3f061665	0.5237792
49	0x3e889101	0.2667313
50	0x3efb7c45	0.49118248
51	0x3ea2b73f	0.3178043
52	0x3f0bfa49	0.5467878
53	0x3e918b38	0.28426528
54	0x3db77203	0.08957293
55	0x3f09bf40	0.5380745
56	0x3f09aae9	0.53776413
57	0x3dcfb9b0	0.10142839
58	0x3df7abdb	0.12093326
59	0xbd5f056c	-0.05444853
60	0x3f0621ff	0.52395624
61	0x3e92dab8	0.28682494
62	0x3dcca959	0.09993238
63	0x3e87e2b4	0.26540148
64	0x3e7abbf1	0.24485756
65	0x3f1cb5d0	0.61214924
66	0x3f0785f6	0.52938783
67	0xbdfe3956	-0.1241328
68	0x3eb6d8cf	0.35712287
69	0x3e2c879d	0.16848607
70	0x3ea10a5d	0.3145322
71	0x3e75c313	0.24000196
72	0x3f0c9ff8	0.5493159
73	0x3da32301	0.07965661
74	0x3e4d8676	0.20070824
75	0x3e97320d	0.29530373
76	0x3e65fb05	0.22459038
77	0x3e270005	0.16308601
78	0x3e9c9618	0.30583262
79	0x3de17ef6	0.11010544
80	0x3c68d24a	0.014210293
81	0x3eaa512f	0.33265063
82	0x3f13f3cc	0.5779388
83	0x3db9a6e4	0.09065035
84	0x3e7ab3f6	0.24482712
85	0xbd32a77d	-0.04361676
86	0x3edb8ea1	0.42882255
87	0xbde52764	-0.11189154
88	0xbdbcd6c1	-0.092206486
89	0x3e8c2d13	0.2737814
90	0x3d833e3c	0.06408355
91	0x3ee98ca7	0.45615122
92	0xbca74e59	-0.020423101
93	0x3d6bd66b	0.05757753
94	0x3ee4d04a	0.44690162
95	0x3d63089a	0.055428125
96	0x3dae0660	0.0849731
97	0x3e0a1c98	0.1348747
98	0xbd8f3ecd	-0.069944
99	0x3c55d1ab	0.013050477

encoder_y.sequential_mlp.5.weight f4 [1, 100]
0	0xbe446bae	-0.19181702
1	0x3e7f849a	0.24952927
2	0x3efdf1f0	0.49598646
3	0x3ef09dac	0.46995294
4	0x3efa2cb3	0.48862228
5	0x3eeaf6a1	0.45891288
6	0x3f060090	0.5234461
7	0xbee07d00	-0.43845367
8	0xbeb6c907	-0.35700247
9	0xbed461fc	-0.41481006
10	0xbeaa9a07	-0.3332064
11	0xbe4effe3	-0.202148
12	0x3f876bc6	1.0579765
13	0xbe823561	-0.2543135
14	0xbf13d71a	-0.57750094
15	0x3e9e15f4	0.30876124
16	0x3ee3b60a	0.44474822
17	0xbedc3c42	-0.43014723
18	0xbea99367	-0.33120272
19	0x3e99af93	0.30016765
20	0x3e60e129	0.21960892
21	0x3ee0cf72	0.43908268
22	0xbe3142e0	-0.17310667
23	0x3e839cbc	0.25705516
24	0xbe266810	-0.16250634
25	0x3f059f9a	0.5219666
26	0x3f06f742	0.52721035
27	0x3ef24849	0.47320774
28	0xbe691973	-0.22763614
29	0xbea78d49	-0.3272498
30	0xbe8059ec	-0.25068605
31	0xbe0c7b72	-0.13718966
32	0xbe4e033d	-0.20118423
33	0x3e8a89f8	0.27058387
34	0x3ef04246	0.46925563
35	0xbeaa9a02	-0.33320624
36	0xbe7fa606	-0.24965677
37	0x3e939fee	0.28832954
38	0xbec62e80	-0.38707352
39	0x3f073333	0.528125
40	0xbe8b33af	-0.2718787
41	0xbea1ab80	-0.31576157
42	0x3edbecfe	0.42954248
43	0xbe658c23	-0.22416739
44	0x3e865a05	0.26240554
45	0x3f0631c5	0.5241969
46	0xbea59bce	-0.32345432
47	0xbeb32b22	-0.34993845
48	0x3f067014	0.5251477
49	0x3eef10bd	0.46692458
50	0x3ee34991	0.44392064
51	0x3e84923a	0.25892812
52	0x3f06a155	0.52589923
53	0xbebfacc2	-0.3743649
54	0xbe6280c5	-0.22119434
55	0x3f0885f0	0.5332937
56	0x3f05d86d	0.52283365
57	0xbeefc3a5	-0.46828952
58	0xbe3524a3	-0.17689757
59	0xbe27cab0	-0.16385913
60	0x3ee98111	0.45606282
61	0xbec6bc25	-0.38815418
62	0xbe5df926	-0.21677074
63	0xbecbedd3	-0.39829883
64	0xbeb7e465	-0.3591644
65	0x3f369401	0.71319586
66	0x3f06cda6	0.52657545
67	0xbe21e40b	-0.15809648
68	0x3ea3f47f	0.32022473
69	0x3e8eff74	0.2792927
70	0x3e77a68f	0.24184631
71	0xbeb6dcbe	-0.35715288
72	0x3f0a3a3b	0.539951
73	0xbe18246d	-0.14857645
74	0xbec0a902	-0.37628943
75	0x3e94f23f	0.2909107
76	0xbeb81b46	-0.35958308
77	0xbe9e5e41	-0.30931285
78	0x3e9acb3c	0.3023318
79	0xbe3c1213	-0.1836627
80	0xbeed00e7	-0.4628975
81	0xbec3ec21	-0.3826609
82	0x3f698875	0.9122384
83	0xbe5e08c4	-0.21683031
84	0xbebb777f	-0.36614606
85	0xbe424314	-0.18970901
86	0x3e3ad050	0.18243527
87	0xbe2d5619	-0.16927375
88	0xbf1f13d1	-0.6213961
89	0xbea6128b	-0.32436022
90	0xbe82b184	-0.2552606
91	0x3f19534c	0.59892726
92	0xbeed792a	-0.46381503
93	0xbea67170	-0.3250842
94	0x3e4163e7	0.18885766
95	0xbe0ed170	-0.13947082
96	0xbe3a778b	-0.18209665
97	0xbedd365b	-0.43205532
98	0xbe5a9cb2	-0.21348837
99	0xbeebc699	-0.46049955

encoder_z.sequential_mlp.1.weight f4 [100, 31]
0	0x3d747556	0.059682213
1	0xbd4dd019	-0.050247286
2	0xbe34b72d	-0.17648001
3	0x3d261759	0.04054961
4	0xbcb0ff3a	-0.021606077
5	0xbe4f065a	-0.20217267
6	0x3d23b8f0	0.039971292
7	0xbe97d276	-0.29652756
8	0xbe9ba3b0	-0.3039832
9	0xbf083c21	-0.5321675
10	0xbe6de121	-0.23230411
11	0xbdbc8538	-0.09205097
12	0xbe5c351f	-0.21504639
13	0xbe1a3eda	-0.15063038
14	0xbf22307e	-0.63355243
15	0x3e6af08f	0.22943328
16	0xbe80d4e2	-0.25162417
17	0xbf191715	-0.59800845
18	0xbdbf148a	-0.093300894
19	0x3c178a4c	0.009249281
20	0x3d48eee7	0.04905596
21	0x3cf7fda6	0.030272316
22	0x3e0d4f71	0.13799836
23	0x3e0d1756	0.13778433
24	0x3e010dfd	0.12602992
25	0x3eb93292	0.36171395
26	0x3e849c77	0.25900623
27	0xbe8958b6	-0.26825494
28	0x3d61339a	0.05498085
29	0xbd025391	-0.031817976
30	0x3f9955a8	1.1979265
31	0x3dc29189	0.09500415
32	0x3d951f50	0.07281363
33	0x3dccceec	0.10000405
34	0xbe21b561	-0.15791847
35	0x3d95466b	0.07288822
36	0xbe9194fa	-0.28433973
37	0x3cb9b0d8	0.022667333
38	0xbeb0736f	-0.3446307
39	0xbfaa860f	-1.3322161
40	0xbdf5f589	-0.12009723
41	0xbf8afd6a	-1.0858586
42	0xbd14273d	-0.036170233
43	0x3b784be9	0.0037887043
44	0xbee28786	-0.4424402
45	0xbec71988	-0.38886666
46	0xc0395d40	-2.8963165
47	0xbcd8347c	-0.026392214
48	0xbd2a6c05	-0.04160692
49	0xbc1b015d	-0.009460774
50	0xbdee3540	-0.116312504
51	0x3de19824	0.11015347
52	0xbe270bc5	-0.16313083
53	0xbd2c25ea	-0.042028345
54	0xc095d7a0	-4.6825714
55	0x3dd5f571	0.10447205
56	0xbf38fbe7	-0.7225937
57	0xbe453422	-0.19258168
58	0xbe13de26	-0.14440212
59	0xc03bbfac	-2.9335737
60	0xbec4891b	-0.38385853
61	0x3f387e4d	0.7206772
62	0xbd384897	-0.044991102
63	0x3d298489	0.04138616
64	0x3c4ff4a2	0.012692602
65	0xbcf7af5b	-0.030234983
66	0xbe085e9e	-0.13317344
67	0xbcc2410a	-0.023712654
68	0xbb437e2a	-0.0029829838
69	0xbf75bf63	-0.9599516
70	0xbde4e037	-0.11175578
71	0xbd9fb7d5	-0.07798735
72	0x3d55e028	0.052215725
73	0xbcf52f73	-0.029929852
74	0xbe82c0ff	-0.2553787
75	0x3c835869	0.016033368
76	0xbd9db285	-0.077000655
77	0x3e3b7d0a	0.18309417
78	0xbd635620	-0.055502057
79	0x3db5b35a	0.08872099
80	0xbd228c14	-0.03968437
81	0xbe1cb59a	-0.1530365
82	0x3cb42c78	0.02199386
83	0xbc94a924	-0.018147059
84	0xbc53ce41	-0.012927593
85	0xbddf7485	-0.10910896
86	0x3cb86388	0.022508398
87	0x3d84ef29	0.06490929
88	0xbec74b35	-0.38924566
89	0x390b6e9a	0.00013297275
90	0xbe0f0289	-0.13965811
91	0xbe1f90f5	-0.1558264
92	0xbf806074	-1.0029435
93	0x3aa64334	0.0012684823
94	0xbdb16938	-0.08662647
95	0xbf698dca	-0.9123198
96	0xbcfce7bd	-0.03087222
97	0xbfcecc6a	-1.6156132
98	0xbd7a098e	-0.06104427
99	0xbdbf13be	-0.093299374
100	0xbd1de756	-0.038550697
101	0x3cba3bfa	0.022733677
102	0xbe3d6da4	-0.18498856
103	0xbdb4fc88	-0.08837229
104	0xbe302d89	-0.1720487
105	0x3e2a6b25	0.16642435
106	0x3d79553e	0.06087231
107	0x3c46b55f	0.012128203
108	0xbdf320e0	-0.11871505
109	0xbd9c3a3b	-0.07628294
110	0xbd90cb3f	-0.07070016
111	0x3eb403ff	0.351593
112	0x3dc92751	0.09821952
113	0x3e722028	0.23645079
114	0x3d5ee56f	0.054418024
115	0x3e033580	0.12813377
116	0x3d5a565a	0.053305008
117	0xbc9ca69c	-0.019122414
118	0x3a145972	0.00056590803
119	0x3e198112	0.14990643
120	0x3d68cdfc	0.056837067
121	0x3d3ce1c8	0.04611376
122	0x3d1de9f3	0.03855319
123	0xbe839251	-0.25697568
124	0xbf82ed82	-1.0228732
125	0xbdfccfc3	-0.12344315
126	0xbe70989f	-0.2349572
127	0xbd258900	-0.040413857
128	0xbe832fd2	-0.25622422
129	0xc0083a37	-2.1285532
130	0x3e157681	0.14595987
131	0x3e0d05f8	0.13771808
132	0x3d944678	0.07240003
133	0x3ca873eb	0.020563086
134	0xbf2d5a03	-0.6771547
135	0xbea1bba6	-0.31588477
136	0x3da76386	0.081732795
137	0xbcb08d7d	-0.021551842
138	0x3d4006d8	0.046881527
139	0x3cd155f0	0.025553674
140	0xbe8d610b	-0.276131
141	0xbd5fa664	-0.05460204
142	0xbd7d12f0	-0.06178564
143	0xbdc017e3	-0.09379556
144	0xbd487889	-0.048943076
145	0x3d4de63b	0.050268393
146	0x3bb6603f	0.0055656726
147	0xbbac2aef	-0.0052541415
148	0xbe9aab5f	-0.3020887
149	0xbdd6b2ec	-0.104833454
150	0x3cf31c7e	0.029676672
151	0xbd697395	-0.056994993
152	0xbdbc927d	-0.09207628
153	0xbefa6672	-0.48906285
154	0x3d219c12	0.03945548
155	0xbd3bd2a8	-0.045855194
156	0xbc2b73a4	-0.010464583
157	0x3d4a5b72	0.049403615
158	0xbd22b7dd	-0.039726127
159	0x3ca211cd	0.019783879
160	0x3ca5d70f	0.02024415
161	0x3ced7258	0.028985187
162	0xbec0274f	-0.3752999
163	0x3ac1d95a	0.0014789507
164	0xbe0e28da	-0.13882771
165	0xbd354ab1	-0.044260684
166	0xbf8eecc1	-1.1166002
167	0xbe3e897b	-0.18607132
168	0xbe551c32	-0.20811537
169	0xbe6e086c	-0.232454
170	0xbeddd1c4	-0.433241
171	0x3d4166a1	0.047217015
172	0x3e1ad818	0.15121496
173	0xbc16ce75	-0.009204497
174	0x3e3d8fae	0.1851184
175	0x3e28dd58	0.16490686
176	0x3da93ca7	0.08263522
177	0xbee8f64f	-0.4550042
178	0x3bc2ffd9	0.0059509096
179	0xbe89ffb5	-0.269529
180	0xbe44cb51	-0.19218184
181	0x3e159b53	0.14610033
182	0x3d60b855	0.054863293
183	0x3d1abd8f	0.037778433
184	0x3da6ece7	0.08150654
185	0xbe09b70c	-0.13448733
186	0x3d92bb09	0.071645804
187	0x3d8cbee7	0.06872349
188	0x3d73ac01	0.059490208
189	0xbd5d6836	-0.05405446
190	0xbdb9e436	-0.09076731
191	0x3d324450	0.04352218
192	0xbfb9f88f	-1.4528979
193	0xbe000a2e	-0.12503883
194	0x3c9bddb1	0.01902661
195	0xbdfcabee	-0.123374805
196	0xbdae68fc	-0.08516118
197	0xbd16fc4f	-0.036861714
198	0xbcc2c9a5	-0.023777792
199	0xbc4d3861	-0.012525649
200	0xbe7eddad	-0.2488925
201	0x3cf62ba8	0.030050114
202	0xbd29375d	-0.041312564
203	0x3c92add9	0.017905163
204	0x3d216892	0.039406367
205	0xbed0fabe	-0.408163
206	0x3d82c7b0	0.063857436
207	0x3d679e63	0.056547534
208	0x3cc723ef	0.024309127
209	0xbe45e5e9	-0.19325985
210	0xbccb553f	-0.024820922
211	0xbdc2f6f2	-0.09519757
212	0xbe6d704f	-0.23187374
213	0xbebb2607	-0.3655245
214	0xbe019c72	-0.12657335
215	0xbf177f20	-0.5917835
216	0xbfaa7ba4	-1.3318982
217	0xbd592912	-0.053017683
218	0xbce82d84	-0.028342016
219	0xbc398f7f	-0.011325716
220	0xbd4f167e	-0.05055856
221	0xbd726cbd	-0.059185732
222	0xbd8f1780	-0.06986904
223	0xbc9fcef0	-0.019507855
224	0x3bbd0d05	0.0057693743
225	0xbb8530c1	-0.00406465
226	0xbd2e8a65	-0.042612452
227	0xbe0ae329	-0.13563217
228	0xbdded33f	-0.10880136
229	0x3c62b690	0.013837472
230	0xbcc9a513	-0.024614846
231	0xbe5db9db	-0.2165293
232	0xbb4fdaa7	-0.003171602
233	0x3e220df0	0.15825629
234	0x3dced454	0.10099092
235	0x3ea9a5bf	0.33134267
236	0x3e741497	0.2383598
237	0x3dc036c7	0.09385448
238	0xbc8fde0d	-0.017561937
239	0x3b8a1801	0.0042142873
240	0xbdec80db	-0.11548015
241	0xbc88a687	-0.016680969
242	0x3acf0ec7	0.0015797251
243	0xbd6597e5	-0.05605306
244	0xbbf655b5	-0.0075175413
245	0xbdd5cf7b	-0.104399644
246	0xbb9a9c07	-0.004718307
247	0x3d11553e	0.035481684
248	0x3b2f70e8	0.0026770178
249	0xbc3c1ed8	-0.011481963
250	0xbc001abe	-0.007818876
251	0x3c6ef40e	0.014584554
252	0xbe9dac12	-0.30795342
253	0xbe02bf69	-0.1276833
254	0xbdabb776	-0.08384602
255	0xbd63b397	-0.055591192

encoder_z.sequential_mlp.1.bias f4 [100]
0	0x3d1177a9	0.035514507
1	0xbd263fe2	-0.040588267
2	0xbd9b19d3	-0.07573285
3	0x3d68512b	0.056718033
4	0x3d2eeb83	0.04270507
5	0xbb8af24e	-0.0042403108
6	0xbd30ebc6	-0.0431936
7	0xbb81641b	-0.003948701
8	0x3bf21147	0.0073873135
9	0xb9cd90bf	-0.0003920849
10	0x3d1d7748	0.038443834
11	0xbb2e8595	-0.0026629914
12	0x3be038f0	0.006842725
13	0x3d1403e8	0.036136538
14	0x3d96597e	0.07341288
15	0x3d975408	0.073890746
16	0x3d5d61d2	0.054048367
17	0x3d35832b	0.044314545
18	0x3cd3bb0f	0.025846032
19	0x3c91acf5	0.017782668
20	0x3d8c8588	0.068614066
21	0xbd938525	-0.0720313
22	0x3b8cdaf4	0.004298562
23	0x3dde2a5a	0.10847922
24	0x3d13370a	0.03594116
25	0x3d41fc27	0.04735961
26	0x3ca33383	0.019922024
27	0x3d7d21a5	0.061799664
28	0x3dc85f1b	0.09783765
29	0xbcfab272	-0.030602667
30	0xbd3b2bd0	-0.04569608
31	0xbc4afc25	-0.0123892175
32	0x3d49584d	0.049156476
33	0xbced046f	-0.028932778
34	0x3def8155	0.1169459
35	0x3cff1311	0.031137021
36	0xbdbff3b8	-0.093726575
37	0x3d52ca1d	0.05146228
38	0x3a8358c1	0.0010020958
39	0x3c87e9ab	0.016590914
40	0x3d5963e5	0.053073782
41	0xbc2550d9	-0.010090076
42	0xba730f43	-0.00092719885
43	0x3da97a63	0.082752965
44	0x3c2cfbd1	0.010558085
45	0x3d9b75b0	0.075908065
46	0xbd6010f5	-0.05470367
47	0xbb2a5cfe	-0.002599537
48	0xbca8712a	-0.020561773
49	0x3ce8391c	0.028347544
50	0x3d74808f	0.059692916
51	0x3d331dfd	0.04372977
52	0x3d2c809e	0.042114846
53	0x3caef41c	0.021356635
54	0x3d1a825f	0.037721988
55	0x3a6a57ca	0.0008939473
56	0x3d86f3e5	0.06589488
57	0x3c36f79d	0.011167434
58	0xbd2c95b9	-0.042134974
59	0x3cc3ee3b	0.023917308
60	0x3cc3f3df	0.023919998
61	0x3cb281de	0.021790441
62	0xbd60ec29	-0.05491272
63	0x3cd51ba2	0.026014153
64	0x3cad1e32	0.021132562
65	0xbcfb2811	-0.030658754
66	0x3ddf2033	0.108948134
67	0xbd5b2994	-0.05350645
68	0xbbb081d4	-0.0053865705
69	0x3bf796c9	0.007555817
70	0x3dd78bab	0.105246864
71	0x3b86d2ff	0.004114508
72	0x3d12eb78	0.03586909
73	0x3d1416e4	0.036154643
74	0x3cc213ec	0.02369114
75	0x3d13d37b	0.036090355
76	0xbbc39055	-0.0059681335
77	0xbbf7fb0e	-0.00756777
78	0xbcbea091	-0.023269923
79	0x3d4ce2e6	0.050021075
80	0x3cdea6ab	0.027179083
81	0x3bb35ecc	0.005473947
82	0x3c8508d0	0.016239554
83	0x3cd62388	0.02613999
84	0x3c8c3f16	0.017119925
85	0x3be8aac3	0.0071004345
86	0xbcc46740	-0.023975015
87	0xbc7087dc	-0.014680829
88	0xbc8a5db5	-0.016890386
89	0x3cc5dc9c	0.024153046
90	0xbc99d042	-0.018776063
91	0x3d26c367	0.040713694
92	0x3daf7f43	0.08569195
93	0x3d37d158	0.04487738
94	0xbcaeff52	-0.02136198
95	0x3c87b165	0.01656408
96	0xbd212d47	-0.03934982
97	0xbd1079e2	-0.035272487
98	0x3d723408	0.059131652
99	0x3d2f98ac	0.04287021

encoder_z.sequential_mlp.3.weight f4 [100, 100]
0	0xbe53aca6	-0.20671329
1	0x3dbd1eb1	0.092343695
2	0xbd143d6d	-0.036191393
3	0xbbd814d4	-0.00659428
4	0xbd8cb6e3	-0.068708204
5	0xbddfd4c9	-0.109292574
6	0xbe99b1cf	-0.3001847
7	0xbc21981d	-0.009862927
8	0x3d6aa71a	0.057288267
9	0x3ac90d23	0.0015338998
10	0x3e02d6bc	0.12777227
11	0xbe7290ea	-0.23688093
12	0xbd1bc73f	-0.038031813
13	0x3e279d15	0.16368516
14	0xbdd591d1	-0.10428203
15	0x3ce7346a	0.028223235
16	0xbda59086	-0.08084206
17	0xbe19a278	-0.15003383
18	0xbd71be4a	-0.059019364
19	0xbc0b4c8b	-0.008502136
20	0xbd1ef220	-0.038805127
21	0x3d1763e8	0.036960512
22	0xbd8b9160	-0.068148375
23	0xbd921f74	-0.071349055
24	0xbd3b29cf	-0.04569417
25	0xbdc42aa1	-0.09578443
26	0xbb93c47a	-0.004509506
27	0xbe9f65e1	-0.31132415
28	0xbe0076f1	-0.12545373
29	0x3d9c9e8d	0.07647429
30	0xbe4d8dbc	-0.20073599
31	0x3d8606ef	0.06544291
32	0xbde9e1ca	-0.11420019
33	0xbd0d056d	-0.034429003
34	0xbdbd665a	-0.09248038
35	0xbe4afb57	-0.19822441
36	0xbbb66817	-0.0055666077
37	0xbdaaf8cd	-0.08348236
38	0x3db9f6da	0.09080286
39	0xbda7d1a2	-0.08194281
40	0xbcb8264b	-0.022479197
41	0xbdeafe4a	-0.11474283
42	0xbf0676d2	-0.52525055
43	0xbdb1f742	-0.08689739
44	0xbe615dbe	-0.22008416
45	0xbd196bfb	-0.037456494
46	0x3d7b04a7	0.061283734
47	0x3d7c7261	0.061632518
48	0x3c703c4a	0.0146628115
49	0x3dc09eac	0.09405264
50	0xbe80b261	-0.25136092
51	0xbd9ff8e0	-0.07811141
52	0x3d9b8b02	0.07594873
53	0xbe0b6356	-0.13612112
54	0x3ddac0e6	0.10681324
55	0xba6d2e97	-0.0009047775
56	0x3da5093a	0.080584005
57	0xbd9cb0be	-0.076508984
58	0xbeb62102	-0.35572058
59	0xbb82daf4	-0.0039933864
60	0x3d179899	0.037010763
61	0x3e0fbbbf	0.14036463
62	0x3dfafa6b	0.12254795
63	0xbe6fc542	-0.23415092
64	0x3cd22e79	0.025656926
65	0x3e15fc45	0.14647014
66	0x3d7cfeaf	0.061766323
67	0xbe1f550d	-0.15559788
68	0xbbc4eaa2	-0.0060094157
69	0x3db30a1a	0.08742161
70	0xbdff8210	-0.12475979
71	0x3dcc1cef	0.09966456
72	0x3cf15910	0.029461414
73	0xbc48396b	-0.012220721
74	0x3d7afb3d	0.061274756
75	0x3e1491bf	0.14508723
76	0xbea22412	-0.31668144
77	0x3c47082e	0.012147946
78	0xbc400cfa	-0.011721844
79	0x3d732dc8	0.059369832
80	0x3d8e5a4c	0.069508165
81	0xbdd4cae8	-0.10390264
82	0x3d51f486	0.051258586
83	0x3d910f96	0.07083051
84	0xbc06940c	-0.008214008
85	0x3d30c80e	0.043159537
86	0xbe53a5ff	-0.20668791
87	0xbe9c214c	-0.30494153
88	0xbd629976	-0.055322133
89	0x3cb12f0e	0.021628883
90	0x3d987996	0.07445066
91	0xbe8fbd14	-0.28073943
92	0x3ce73168	0.0282218
93	0xbc8efc72	-0.01745436
94	0xbe59b474	-0.21260244
95	0x3d6004da	0.054692127
96	0xbcbb03b3	-0.022828912
97	0x3cc16f5e	0.023612674
98	0xbd69acbd	-0.0570495
99	0x3d063d24	0.032773152
100	0xbe74863e	-0.23879334
101	0x3e36e26b	0.17859809
102	0xbcd2ad16	-0.0257173
103	0x3ce278a9	0.027645426
104	0xbe1cd76b	-0.1531655
105	0xbbe827d7	-0.0070848274
106	0x3d582576	0.0527701
107	0x3dbef96a	0.09324916
108	0xbdfb1b14	-0.12261024
109	0xbd6fb605	-0.058523197
110	0xbd3c61b4	-0.045991614
111	0xbdd1c257	-0.102421455
112	0xbdd7deb0	-0.10540521
113	0x3da471df	0.08029532
114	0xbe2391bb	-0.1597356
115	0xbbedd0d9	-0.0072575626
116	0xbdfaf84f	-0.12254392
117	0xbddcbb4c	-0.107779115
118	0xbd5ba857	-0.05362734
119	0x3cbe2c87	0.023214592
120	0xbdf4a393	-0.11945262
121	0x3e247baa	0.16062799
122	0xbdc8683e	-0.097855076
123	0xbe1c324a	-0.15253559
124	0xbdf0705d	-0.117401816
125	0xbd8d4b13	-0.06899085
126	0xbe464056	-0.1936048
127	0xbd3abed6	-0.04559215
128	0xbd5065ce	-0.05087834
129	0x3d049f48	0.032378465
130	0xbd1cebbd	-0.038310755
131	0x3c4daa35	0.012552788
132	0xbd9e7bf4	-0.07738486
133	0xbe27db60	-0.16392279
134	0xbdca3c50	-0.09874785
135	0xbd970f33	-0.07375946
136	0x3dced6d6	0.100995705
137	0xbdd23a5a	-0.10265036
138	0xbd9cd34d	-0.0765749
139	0x3d56dafc	0.052454934
140	0x3d6056a6	0.054770134
141	0xbcd1471f	-0.025546608
142	0xbdf710fa	-0.12063785
143	0xbd8d0623	-0.06885936
144	0xbd58aa25	-0.052896637
145	0xbd280d0e	-0.041028075
146	0xbc35222b	-0.01105551
147	0xbd47e579	-0.048802827
148	0xbe5a4d61	-0.2131858
149	0x3d846231	0.06464041
150	0xbd1094f8	-0.035298318
151	0xbca79bdd	-0.020460064
152	0xbce426c0	-0.027850509
153	0xbd85cc72	-0.065331355
154	0xbe1f5c2c	-0.15562505
155	0xbd1e745f	-0.0386852
156	0xbdf8a564	-0.12140921
157	0xbce2ff32	-0.027709577
158	0xbd4f3b45	-0.050593633
159	0xbe995538	-0.2994783
160	0xbd4889a2	-0.048959382
161	0xba3d503f	-0.00072217354
162	0xbdd80de0	-0.105495214
163	0xbc850a5e	-0.016240295
164	0xbd92d6bf	-0.07169866
165	0x3dcf091d	0.1010916
166	0xbe2bb862	-0.16769555
167	0xbd8b87ca	-0.06813009
168	0xbd04153b	-0.03224681
169	0xbe8870e5	-0.26648632
170	0xbd388733	-0.04505081
171	0xbd8ab77f	-0.0677328
172	0xbddc3b7f	-0.107535355
173	0x3c3a1b0b	0.011358987
174	0x3d50edb0	0.051007926
175	0xbd9d6050	-0.07684386
176	0xbd0d59a3	-0.034509312
177	0xbe0a10e5	-0.13483007
178	0xbe3713d4	-0.17878658
179	0xbd58f1a0	-0.052964807
180	0xbe55a18a	-0.20862404
181	0x3d148e64	0.036268607
182	0x3d804012	0.062622204
183	0x3da1386c	0.0787209
184	0xbdb867f8	-0.090042055
185	0xbe8a0206	-0.2695467
186	0xbe2d5148	-0.16925538
187	0xbdceca71	-0.100972064
188	0xbde58c34	-0.11208382
189	0xbd662cc3	-0.05619503
190	0x3d2b1761	0.041770343
191	0xbdb91043	-0.09036305
192	0xbd7aedcc	-0.061261937
193	0xbd96a498	-0.073556125
194	0x3d6b1b5f	0.05739915
195	0xbe00e7d7	-0.1258844
196	0x3dec0b80	0.11525631
197	0x3d9e96d3	0.07743611
198	0xbe5c75a8	-0.21529257
199	0xbe1d40a3	-0.15356688
200	0xbe6ed073	-0.23321705
201	0xbe0adcf4	-0.1356085
202	0x3d2a5734	0.04158707
203	0xbd5f93b0	-0.054584205
204	0x3df6cb62	0.12050511
205	0x3d1b8d01	0.03797627
206	0xbdc2b11c	-0.09506437
207	0xbc2f1b60	-0.010687679
208	0xbd8183d0	-0.06323969
209	0x3cd0369c	0.025416665
210	0x3cd0ccab	0.025488218
211	0x3dd1cea6	0.10244493
212	0xbd1de653	-0.038549732
213	0x3e057e1e	0.13036391
214	0xbdacbead	-0.08434806
215	0x3d716072	0.058929868
216	0xbc906b9c	-0.017629437
217	0xbdd9e8e8	-0.106401265
218	0x3b0dcd7c	0.002163737
219	0xbe12ee88	-0.14348805
220	0xbd129019	-0.035781953
221	0x3d92cd67	0.07168084
222	0xbd56229d	-0.052279104
223	0x3cbe4997	0.02322845
224	0x3d83c8cb	0.064347826
225	0xbe6b0d6a	-0.22954336
226	0xbead1c87	-0.33810827
227	0xbcb43cda	-0.022001673
228	0x3d0acfaa	0.03388945
229	0x3db9fded	0.090816356
230	0x3c96e3a1	0.018419089
231	0xbdf23bc7	-0.11827808
232	0xbdf5e71b	-0.120069705
233	0x3d0e2d3a	0.0347111
234	0xbdd65933	-0.10466232
235	0xbe7716d3	-0.241298
236	0x3d738115	0.059449274
237	0x3d02292b	0.031777542
238	0x3d4855fa	0.04891012
239	0xbd5264e1	-0.051365737
240	0xbd9498f4	-0.07255736
241	0xbe22dc0c	-0.15904254
242	0xbd7e4fbe	-0.062087767
243	0xbc86c76f	-0.01645252
244	0xbdf996e1	-0.12186981
245	0xbe4e67e6	-0.20156822
246	0xbcb28732	-0.021792982
247	0x3d987d2f	0.07445752
248	0xbd99b687	-0.075055175
249	0x3d1dfe2c	0.038572475
250	0xbdc7c196	-0.097537205
251	0x3ba32d6e	0.004979781
252	0x3dbc9a63	0.092091344
253	0xbe30757e	-0.1723232
254	0xbc7416e3	-0.014898035
255	0xbdad4539	-0.08460469

encoder_z.sequential_mlp.3.bias f4 [100]
0	0xbd0b0457	-0.033939686
1	0xbd32ec6b	-0.043682497
2	0x3db1fc4a	0.086906984
3	0xbdc295c4	-0.09501222
4	0xbd7cdb2f	-0.061732467
5	0xbdae071e	-0.08497451
6	0x3e05b309	0.13056578
7	0x3df6a5e1	0.12043358
8	0xbd8f0a81	-0.06984425
9	0xbd58e83f	-0.052955862
10	0xbd981821	-0.07426477
11	0x3caf0ac5	0.02136744
12	0x3d4e832c	0.050418064
13	0xbd60b59a	-0.05486069
14	0xbd798d43	-0.060925733
15	0xbbbcf779	-0.0057668057
16	0xbd3ae1e3	-0.04562558
17	0xbd342fd6	-0.043990932
18	0xbdb17a0f	-0.08665859
19	0xbd6f19fc	-0.05837439
20	0xbdada151	-0.08478034
21	0xbd8f2e3a	-0.06991239
22	0xbd9d635c	-0.07684967
23	0xbdafe090	-0.08587754
24	0xbcdd76a4	-0.027034111
25	0xbdb70182	-0.089358345
26	0x3944c81d	0.00018766565
27	0x3c8d1d73	0.017225957
28	0xbdfcde7f	-0.12347125
29	0xbd1fbc39	-0.038997862
30	0x3cc300a3	0.023804015
31	0xbde018f8	-0.109422624
32	0xbda06c87	-0.078332
33	0xbd622d81	-0.055219177
34	0xbd634e66	-0.05549469
35	0xbda0b85f	-0.07847666
36	0x3dff2463	0.12458112
37	0xbc38126f	-0.011234864
38	0xbd18566d	-0.037191797
39	0xbd7a3d00	-0.06109333
40	0xbc5ac98c	-0.013353717
41	0xbe0a1de0	-0.13487959
42	0xbd9d05f9	-0.07667155
43	0xbba5a143	-0.0050546243
44	0xbcb919aa	-0.022595245
45	0xbcc92a12	-0.024556194
46	0xbd9e42eb	-0.07727607
47	0x3cc36764	0.023853011
48	0x3a33dd7f	0.00068613136
49	0xbe5a2fed	-0.21307345
50	0xbce81cd5	-0.02833406
51	0xbd1ff2d4	-0.03904994
52	0xbd04cf28	-0.032424122
53	0x3dbe20b8	0.09283584
54	0x3dc7ee97	0.09762304
55	0x3dbb6875	0.09150783
56	0xbcadad59	-0.021200823
57	0x3c37097d	0.011171696
58	0xbd2936dd	-0.041312087
59	0x3d5dc471	0.05414242
60	0x3e1def79	0.15423383
61	0xbc736bfd	-0.014857289
62	0x3c6d12b4	0.014469791
63	0xbcdef428	-0.027216032
64	0x3c90953e	0.01764929
65	0x3bfd25d5	0.007725457
66	0xbd99bb1e	-0.07506393
67	0xbdc06250	-0.093937516
68	0x3db389cb	0.08766516
69	0xbda14fb1	-0.07876528
70	0x3ea156ad	0.3151144
71	0xbc331379	-0.010929936
72	0xb8df7ba0	-0.000106564956
73	0xbda581d8	-0.08081406
74	0xbd82faea	-0.06395514
75	0xbdd72210	-0.10504544
76	0x3d6de04b	0.05807523
77	0xbd97d036	-0.0741276
78	0x3e1866d5	0.14882977
79	0xbc627cb4	-0.013823677
80	0xbbee52ec	-0.0072730687
81	0xbc9986ad	-0.018740976
82	0x3cf8b41a	0.030359317
83	0xbcbce578	-0.023058638
84	0xbdc8a6e2	-0.09797455
85	0xbd7bafbe	-0.061446898
86	0xbc4ce335	-0.012505342
87	0xbcada3e3	-0.021196311
88	0x3d35feee	0.044432573
89	0xbbbf0ec4	-0.0058306176
90	0xbd49feff	-0.04931545
91	0xbb889d64	-0.004169153
92	0x3e0d5e07	0.138054
93	0xbcd9df3d	-0.026595706
94	0xbda840da	-0.082154945
95	0xbdaf4054	-0.085571915
96	0xbdf41474	-0.119179636
97	0x3ceca502	0.028887276
98	0xbdc1732a	-0.09445794
99	0xbd57d97f	-0.052697655

encoder_z.sequential_mlp.5.0.0.weight f4 [2, 100]
0	0x3da473da	0.080299094
1	0x3d866f4d	0.06564198
2	0xbc5933e3	-0.013257
3	0xbe3e4e5f	-0.18584584
4	0x3d05590c	0.032555625
5	0xbdbde067	-0.09271317
6	0xbcec160d	-0.028819108
7	0x3b45e120	0.0030194
8	0x3e6ec080	0.2331562
9	0xbd6c6edc	-0.05772291
10	0x3dc60e98	0.09670752
11	0x3d38548f	0.045002516
12	0xbca26275	-0.019822339
13	0xbe1c8763	-0.15286021
14	0x3e1902ff	0.14942549
15	0x3de3c5f1	0.11121739
16	0xbe0dea97	-0.1385902
17	0xbd32aeb9	-0.04362366
18	0xba9b1698	-0.0011832295
19	0xbd932155	-0.07184092
20	0x3e12448a	0.14283958
21	0xbe3c0c95	-0.18364175
22	0xbd3c26c4	-0.045935407
23	0xbdc716bd	-0.09721134
24	0xbdf18029	-0.11792023
25	0x3d802da4	0.06258705
26	0xbcbfda28	-0.023419455
27	0x3d671978	0.056420773
28	0xbe8b7008	-0.2723391
29	0xbe93cb55	-0.28866068
30	0xbd09c2a2	-0.033632882
31	0x3c0c1b9f	0.008551507
32	0x3cab043a	0.020876039
33	0xbe49247e	-0.19642827
34	0xbcdeed45	-0.027212748
35	0x3e0e9d8c	0.13927287
36	0x3b92331b	0.0044616587
37	0x3d6d45e1	0.05792797
38	0xbbcd32ac	-0.006262144
39	0x3b26abcf	0.0025431996
40	0x3d13910a	0.036026992
41	0x3c9cedf7	0.01915644
42	0x3c3340db	0.010940756
43	0x3e344756	0.17605338
44	0x3bd103a5	0.0063786083
45	0xbe5418c9	-0.2071258
46	0xbd23005d	-0.03979527
47	0xbde33dc7	-0.110957675
48	0x3d234eb9	0.039869998
49	0xbed4f64a	-0.41594154
50	0xbd35e9eb	-0.044412535
51	0xbd26f249	-0.040758405
52	0x3d6bbf71	0.05755562
53	0x3dd6c3b4	0.10486546
54	0x3d67f352	0.056628533
55	0x3cfe0c5e	0.031011757
56	0x3d5e6ab8	0.054300994
57	0xbdff3dff	-0.12462997
58	0x3c980811	0.018558534
59	0xbac7539b	-0.0015207411
60	0x38158317	3.5646455e-05
61	0x3c4e8e2b	0.012607138
62	0x3c81cb92	0.01584414
63	0x3d1fe1d3	0.039033722
64	0x3cd3da49	0.025860922
65	0x3d72557b	0.05916355
66	0xbd615428	-0.0550119
67	0xbe4bd702	-0.19906238
68	0x3a3c4c9a	0.00071830454
69	0xbdb7dc04	-0.089775115
70	0x3a0c2323	0.0005345812
71	0xbc9af38e	-0.018914964
72	0xbb9dd2f2	-0.0048164064
73	0x3d15e161	0.03659189
74	0x3d387381	0.045032028
75	0xbec77c8b	-0.38962206
76	0x3c452bad	0.012034339
77	0x3d743c20	0.059627652
78	0x3a133799	0.00056158897
79	0x3b022e64	0.0019864077
80	0xbb8e76b7	-0.004347648
81	0x3de0eceb	0.109826885
82	0xbc62a059	-0.013832175
83	0x3c7f87c4	0.015596334
84	0xbced4c6e	-0.028967109
85	0x3cd8677e	0.026416536
86	0xbe02ce9e	-0.1277413
87	0xbd7e361b	-0.062063318
88	0xbddce40c	-0.10785684
89	0x3c905de9	0.017622905
90	0x3cdf35dd	0.027247364
91	0xbe282e44	-0.16423899
92	0x3981a7a2	0.00024729694
93	0x3e094e7d	0.13408847
94	0xbcb7bbc2	-0.022428397
95	0x3bc45003	0.0059909835
96	0x3ad3e82e	0.0016167217
97	0xbbc6ab96	-0.006062935
98	0xbcc38392	-0.023866449
99	0x3e5997ac	0.21249264
100	0x3dd4c135	0.10388414
101	0x3cec2de5	0.028830478
102	0x3d8b0eaa	0.06789906
103	0xbe09fbb8	-0.1347493
104	0x3d7f8773	0.062385034
105	0xbe122e46	-0.14275464
106	0x3e204d61	0.15654518
107	0xba98d479	-0.0011660001
108	0x3cc5810f	0.024109391
109	0x3bb9da0a	0.0056717442
110	0xbc9c0ba7	-0.019048525
111	0xbbe378d4	-0.006941894
112	0x3e84f873	0.25970802
113	0xbdc688d2	-0.09694065
114	0x3d84ae37	0.06478541
115	0xbdea6058	-0.11444157
116	0xbe2dfba5	-0.16990526
117	0x3dfc06f0	0.12306011
118	0x3db81346	0.08988051
119	0x3d13c87e	0.036079876
120	0xbc2c52e9	-0.010517814
121	0xbc5f8aff	-0.013643979
122	0xbe3605a0	-0.17775583
123	0x3d3ef3c6	0.0466192
124	0xbd504fec	-0.05085747
125	0xbdb3c4ef	-0.087777965
126	0x3db3e879	0.08784575
127	0xbe83dc3c	-0.25753963
128	0xbe6c5302	-0.2307854
129	0x3d32c664	0.04364623
130	0x3da70c46	0.08156638
131	0xbbfa0852	-0.0076303864
132	0xbda3b524	-0.07993534
133	0x3cc987bc	0.024600856
134	0x3cd6a237	0.026200397
135	0x3c66d778	0.014089458
136	0xbba403b4	-0.0050053243
137	0x3e8ff3be	0.28115648
138	0x3d73cf56	0.059523903
139	0xbe4cd259	-0.20002116
140	0x3d835bb8	0.06413978
141	0x3c802204	0.01564122
142	0xbd0058a9	-0.031334553
143	0xbceac0c1	-0.028656365
144	0xbd81541b	-0.0631487
145	0xbd62667e	-0.055273525
146	0xbe12a6f2	-0.14321497
147	0x3e2a1869	0.16610874
148	0xbd0089e5	-0.031381506
149	0xbe15033a	-0.14552012
150	0x3e2c3b16	0.16819414
151	0xbdf22af3	-0.11824598
152	0xbda0ac34	-0.07845345
153	0xbe33e4f6	-0.1756781
154	0xbd58b70e	-0.05290895
155	0x3d012a81	0.031534676
156	0x3dba8459	0.091072746
157	0x3e0ac056	0.13549933
158	0xbdf84ed5	-0.12124411
159	0xba9c0e9e	-0.0011906212
160	0xbbc65902	-0.006053091
161	0x3d263c67	0.040584948
162	0xbdb0ce32	-0.08633079
163	0x3e26ec40	0.1630106
164	0xbdd4a8d7	-0.10383766
165	0xbd7b9aaa	-0.061426796
166	0x3c898971	0.01678917
167	0xbe3c4bd6	-0.18388304
168	0x3b2f2cde	0.0026729624
169	0xbd5c06e0	-0.053717494
170	0x3b2d4939	0.002644135
171	0xbe47de03	-0.19518284
172	0x3c96c2c6	0.018403422
173	0xbd7b7481	-0.061390404
174	0x3dfc75c1	0.12327147
175	0xbe1f4e8d	-0.15557308
176	0xbccc9d00	-0.024977207
177	0x3dc47cee	0.09594141
178	0x3bf1fdf1	0.0073850085
179	0x3df70f24	0.12063435
180	0x3e0ffee1	0.14062072
181	0xbcc893e8	-0.02448459
182	0x3e1b5bc9	0.15171732
183	0x3db30320	0.087408304
184	0xbdda8581	-0.10669995
185	0x3d0e56e7	0.034750845
186	0x3d05ee81	0.03269816
187	0xbddd0733	-0.10792389
188	0x3d6d0234	0.05786343
189	0xbe437f09	-0.19091429
190	0xbd93fa8f	-0.07225525
191	0x3dbc9749	0.09208543
192	0x3b1201f9	0.0022279008
193	0xbc37f5c9	-0.011228033
194	0xbd22acfc	-0.039715752
195	0x3e06b83b	0.13156216
196	0xbb9381f4	-0.0045015756
197	0x3d81dd29	0.06341011
198	0xbded2df1	-0.11581028
199	0xbd0114d7	-0.031514015

encoder_z.sequential_mlp.5.0.0.bias f4 [2]
0	0x3d0b0386	0.033938907
1	0x3c96e4ab	0.018419584
